resources/actuator_nets/anydrive_v3_lstm.pt (torch, 16648 bytes, 10 tensors)

in_scale f4 [1, 1, 2]
0	0x40000000	2.0
1	0x3e800000	0.25

weight_ih_l0 f4 [32, 2]
0	0x3e0a7ec7	0.13524924
1	0x3dcdaa77	0.10042279
2	0x3d87882f	0.06617772
3	0x3d382233	0.04495449
4	0x3c199787	0.009374506
5	0xbc8226e1	-0.01588768
6	0xbd840463	-0.06446149
7	0x3c919c55	0.01777474
8	0xbe04a81c	-0.12954754
9	0xbe49b2b0	-0.1969707
10	0x3de3e9eb	0.11128601
11	0xbd15da2c	-0.036585018
12	0xbdef1c3b	-0.116753064
13	0xbc2e7cc2	-0.010649862
14	0x3c46c8c4	0.012132827
15	0xbc73ef15	-0.014888545
16	0x3e571551	0.21004225
17	0x3dfc1c8a	0.12310131
18	0xbe1daf69	-0.15398945
19	0xbe372ab3	-0.17887382
20	0xbd551abb	-0.052027445
21	0xbd5f9753	-0.054587673
22	0x3dff361a	0.12461491
23	0x3d96f0f3	0.07370176
24	0xbe37d126	-0.17950878
25	0xbe688ad7	-0.22709213
26	0x3e124e94	0.14287788
27	0x3ea5b0a2	0.32361323
28	0xbe99d3d2	-0.3004442
29	0xbea11beb	-0.31466612
30	0xbd30885a	-0.043098785
31	0xbd56c1ae	-0.0524308
32	0x3ed4a0d1	0.41528943
33	0xbe2ec58b	-0.17067544
34	0x3ed1081b	0.40826496
35	0x3e18a5a1	0.14906932
36	0xbcfe2b26	-0.031026434
37	0x3cbf3ef1	0.023345442
38	0x3ec1e72a	0.37871677
39	0x3e36057c	0.1777553
40	0x3ed59f3d	0.41723052
41	0xbe366dcd	-0.17815323
42	0xbf207006	-0.62670934
43	0x3e9ee076	0.31030625
44	0xbf0696b8	-0.5257373
45	0x3ea2d911	0.31806234
46	0x3d0543b7	0.03253528
47	0xbcb5f6b5	-0.022212366
48	0x3e5527f1	0.20816018
49	0x3dcf0656	0.1010863
50	0xbc1f710c	-0.009731542
51	0xbbd8154d	-0.006594336
52	0xbccec5ad	-0.025240744
53	0xbd7b0d26	-0.061291836
54	0xba107c12	-0.0005511652
55	0x3d9d84c2	0.07691337
56	0xbe4461bc	-0.19177908
57	0xbe20d0c6	-0.15704641
58	0x3e9a63dc	0.30154312
59	0x3f1b54f1	0.60676485
60	0xbe8a0bae	-0.26962036
61	0xbefaf627	-0.49015924
62	0xbc88361f	-0.01662737
63	0xbd640b04	-0.055674568

weight_hh_l0 f4 [32, 8]
0	0x3cf7e148	0.03025879
1	0x3d763907	0.06011298
2	0xbd963d57	-0.073359184
3	0x3bc35dea	0.005962123
4	0xbc519ec9	-0.012794205
5	0x3dc8bcf4	0.09801665
6	0xbd918d2d	-0.07107005
7	0x3d97c087	0.074097686
8	0x3cd664dd	0.026171142
9	0xbc0162a2	-0.007897051
10	0xbcce80ea	-0.025207955
11	0xbc8f2f0e	-0.017478492
12	0xbcc1b606	-0.023646366
13	0x3cbc54cf	0.022989659
14	0xbccbf1de	-0.024895605
15	0x3ccdb8a2	0.025112454
16	0x3c75182e	0.014959378
17	0x3b752204	0.0037404308
18	0xbd2ff3bd	-0.042957056
19	0xbc01b514	-0.007916708
20	0xbc4bdff0	-0.012443528
21	0x3cbf068f	0.023318557
22	0xbd0ee449	-0.03488568
23	0x3d30c2ae	0.04315441
24	0x3c70f1f2	0.014706122
25	0xbc71afbf	-0.014751374
26	0xbd0ea65d	-0.034826625
27	0x3c051527	0.008122719
28	0xbc901810	-0.017589599
29	0x3d452c6a	0.04813806
30	0xbcadcc88	-0.021215692
31	0x3d100206	0.03515818
32	0x3d58a3df	0.052890655
33	0xbc0ab405	-0.008465772
34	0xbdc01531	-0.09379042
35	0xbd47b869	-0.04875985
36	0xbc814c87	-0.015783561
37	0x3da647c7	0.08119159
38	0xbde874ef	-0.11350428
39	0x3dbf4573	0.09339418
40	0x3d333946	0.043755792
41	0x3c66cec0	0.014087379
42	0xbd904506	-0.07044415
43	0xbcef5abd	-0.029218072
44	0x3caccfd0	0.021095186
45	0x3d0dd7b4	0.03462954
46	0xbdbac6b6	-0.09119932
47	0x3d90176e	0.07035719
48	0xbc001f04	-0.007819895
49	0x3c5ff10f	0.013668313
50	0xbd8fce85	-0.07021812
51	0xbc47a597	-0.012185476
52	0xbd8f5451	-0.06998504
53	0x3db709a6	0.08937387
54	0xbc99ee19	-0.018790292
55	0x3d8edf84	0.06976226
56	0x3c7f00c0	0.015564144
57	0x3b829667	0.0039852145
58	0xbd2fda2d	-0.042932678
59	0xbc065888	-0.008199818
60	0xbc41705a	-0.011806572
61	0x3cbe357d	0.023218865
62	0xbd113516	-0.035451017
63	0x3d30aaac	0.043131515
64	0x3cf69b9d	0.0301035
65	0x3d1a016d	0.037599016
66	0xbd094202	-0.033510216
67	0x3cf2c0cc	0.029632948
68	0x3c8eadfc	0.017416947
69	0x3d285897	0.04110011
70	0xbca04827	-0.019565655
71	0x3d0c212e	0.03421133
72	0x3d6d2562	0.05789698
73	0xbbde097c	-0.006776033
74	0xbdca6799	-0.09883041
75	0xbd9eba2f	-0.077503555
76	0xbd144395	-0.036197264
77	0x3daeca66	0.08534698
78	0xbdc64767	-0.09681588
79	0x3dc9129b	0.09818002
80	0x3c9fe6b9	0.019519197
81	0xbb8bb3ca	-0.004263376
82	0xbd64ad57	-0.055829372
83	0xbc464a9e	-0.012102751
84	0xbc8a2a4a	-0.016865868
85	0x3ce8588a	0.028362531
86	0xbd4a3565	-0.049367327
87	0x3d657ac6	0.05602529
88	0x3d6b394b	0.057427686
89	0xbc7329b1	-0.014841483
90	0xbdcf5cec	-0.10125145
91	0xbc8c3441	-0.01711476
92	0xbc590b24	-0.013247285
93	0x3defbf2b	0.11706384
94	0xbda5747e	-0.0807886
95	0x3dd0870d	0.10182009
96	0x3d59e831	0.05319995
97	0xbca92a6c	-0.020650111
98	0xbd2d1dad	-0.04226463
99	0xbc01c025	-0.007919346
100	0x3bc5d3cb	0.0060372106
101	0x3ba5b419	0.0050568697
102	0xbd23c0a4	-0.03997864
103	0x3d2ada31	0.04171199
104	0xbc165d8d	-0.009177578
105	0xbd89c839	-0.067276426
106	0xbd7b4b7e	-0.06135129
107	0xbe33037b	-0.17481796
108	0xbc81df03	-0.01585341
109	0x3dab176d	0.083540775
110	0xbd898828	-0.06715423
111	0x3d753dd9	0.059873436
112	0x3cd6777c	0.026180021
113	0x3ddb1af7	0.106985025
114	0xbce91d72	-0.028456423
115	0x3d81cecd	0.06338272
116	0xbd456ad4	-0.048197582
117	0x3cf896f3	0.030345416
118	0xbc16670c	-0.009179842
119	0x3ceae4fe	0.028673645
120	0x3caa3d32	0.020781133
121	0xbb3a7582	-0.0028451388
122	0xbd656960	-0.056008697
123	0xbc43d4b2	-0.011952566
124	0xbc81f8c7	-0.015865697
125	0x3ce848b5	0.028354982
126	0xbd4eb0db	-0.05046163
127	0x3d664a90	0.056223452
128	0x3e145e05	0.1448899
129	0xbe09729c	-0.13422626
130	0x3d1f4d90	0.03889233
131	0xbee73b48	-0.45162416
132	0x3cb2b9e6	0.021817159
133	0xbde1128a	-0.10989864
134	0x3d3e90d4	0.046524838
135	0xbd3087b8	-0.04309818
136	0x3e46c576	0.19411263
137	0x3da2a45e	0.07941507
138	0xbc9ccf7a	-0.019141901
139	0x3dd176ad	0.10227714
140	0x3e918842	0.2842427
141	0x3dd331f7	0.103122644
142	0x3db0537c	0.086096734
143	0x3cac14cb	0.021006009
144	0xbcef0b05	-0.02918006
145	0xbc06b271	-0.008221255
146	0x3db616e9	0.088910885
147	0x3c8c02d5	0.017091194
148	0x3d010837	0.031501975
149	0xbd5cc383	-0.053897392
150	0x3d90151e	0.07035278
151	0xbdb70883	-0.0893717
152	0x3ea514bd	0.32242385
153	0x3e1bb54c	0.15205878
154	0x3d8f8601	0.07007981
155	0x3c200ebf	0.009769141
156	0x3dd3a46e	0.10334097
157	0x3d4ba9ac	0.04972236
158	0x3e29d7b3	0.16586189
159	0xbd8bf057	-0.068329506
160	0xbe14a462	-0.14515832
161	0xbeebadbc	-0.46030986
162	0xbd02d025	-0.031936783
163	0xbe1f73c1	-0.155715
164	0x3e0bea3c	0.13663572
165	0xbc29b822	-0.010358842
166	0xbe014136	-0.12622532
167	0x3cc668b9	0.024219858
168	0x3eed4764	0.4634353
169	0x3e386d15	0.18010361
170	0xbe9878e9	-0.29779747
171	0xbe901e84	-0.28148282
172	0x3dcf228d	0.10114012
173	0x3da74771	0.08167923
174	0xbebfe805	-0.37481704
175	0x3e98b3c4	0.2982465
176	0x3d223723	0.039603364
177	0xbed7f992	-0.42182595
178	0x3e8f6474	0.28006327
179	0x3dab14ed	0.08353601
180	0x3ede8a01	0.43464664
181	0xbebb35a8	-0.36564374
182	0x3e3fb56f	0.18721555
183	0xbe902bf9	-0.28158548
184	0x3cf7b925	0.030239651
185	0x3c08c0a6	0.008346712
186	0xbdb4c372	-0.08826341
187	0xbc91d097	-0.017799659
188	0xbcf893bf	-0.030343888
189	0x3d58d6f7	0.05293938
190	0xbd923948	-0.07139832
191	0x3db5b974	0.08873263
192	0x3d7249e9	0.059152517
193	0x3da7646e	0.08173452
194	0xbdb50cdf	-0.088403456
195	0x3c89f5bc	0.016840808
196	0x3b968fad	0.004594764
197	0x3dc7605d	0.09735177
198	0xbdb1e6c2	-0.08686592
199	0x3db714a8	0.08939487
200	0x3d82970f	0.063764684
201	0xbbb189c2	-0.0054180333
202	0xbd8f17c1	-0.069869526
203	0xbd13f1ac	-0.036119148
204	0x3b98fb84	0.004668655
205	0x3d70c7af	0.058784183
206	0xbd836441	-0.06415606
207	0x3d8e1ef8	0.069395006
208	0x3c832c5a	0.01601236
209	0x3be9fbe5	0.007140624
210	0xbd91594d	-0.07097111
211	0xbc94cd5c	-0.01816433
212	0xbd0048f6	-0.03131958
213	0x3d1552ec	0.036456034
214	0xbd7af076	-0.061264478
215	0x3d91e770	0.07124221
216	0xbc2c3b6b	-0.010512213
217	0x3cf35436	0.02970324
218	0xbd7a7d55	-0.061154682
219	0xbba82c70	-0.0051322505
220	0xbd55ebcd	-0.05222683
221	0x3dc13cc9	0.09435422
222	0xbd0d5c89	-0.034512077
223	0x3d7c0a0d	0.061533023
224	0x3cbee4de	0.023302492
225	0xbb8e7caa	-0.004348357
226	0xbdd3ad78	-0.10335821
227	0xbd526f90	-0.051375926
228	0xbd38d54d	-0.045125294
229	0x3dbc45c5	0.09192995
230	0xbdebc23a	-0.11511655
231	0x3dd29b5c	0.10283539
232	0x3ccf0ccd	0.025274659
233	0xbdc3f687	-0.09568506
234	0x3c07763b	0.008267934
235	0xbdd4ab70	-0.103842616
236	0x3d8a2db0	0.067469954
237	0xbc0652fd	-0.008198497
238	0x3da4e819	0.080520816
239	0xbbf9c573	-0.0076224147
240	0xbd4d02b8	-0.05005142
241	0x3d0250b7	0.031815257
242	0xbb6ec174	-0.0036431225
243	0x3dba362c	0.09092364
244	0xbdab7d33	-0.08373489
245	0xbd81a2c1	-0.06329871
246	0x3c811043	0.015754825
247	0x3b20c111	0.002452914
248	0x3c9b252b	0.018938622
249	0x3c18d691	0.0093285
250	0xbd922dc2	-0.07137634
251	0xbc92be54	-0.017913021
252	0xbced87fe	-0.02899551
253	0x3d17b52b	0.03703801
254	0xbd7eec51	-0.062237088
255	0x3d92cec1	0.071683414

bias_ih_l0 f4 [32]
0	0x3e295d91	0.16539599
1	0x3e415d00	0.18883133
2	0x3e1d5827	0.15365659
3	0x3e3d00a6	0.18457279
4	0x3e2a3914	0.16623336
5	0x3ee0597c	0.4381827
6	0x3ecb51b7	0.3971078
7	0x3e1ede8c	0.15514582
8	0x3dabfb00	0.08397484
9	0x3e5dd3c5	0.21662815
10	0x3e036ad9	0.12833728
11	0x3e65a479	0.22426023
12	0x3d9eb3ae	0.07749115
13	0x3dc0f8f5	0.09422485
14	0x3d98dc5e	0.07463907
15	0x3e04818e	0.12940046
16	0x3dcb651c	0.099313945
17	0x3e2f2283	0.17103009
18	0xbeadf4cc	-0.33975828
19	0xbdfca722	-0.123365656
20	0xbd83292b	-0.064043365
21	0x3e4b5d7c	0.1985988
22	0xbe293d13	-0.16527204
23	0x3eaeb89c	0.3412522
24	0x3e4d2114	0.2003215
25	0x3e8c871b	0.27446827
26	0x3e520b62	0.20512155
27	0x3e8493bd	0.25893965
28	0x3e4194d2	0.18904427
29	0x3ed4861d	0.4150857
30	0x3ebc0dd2	0.36729294
31	0x3e550949	0.20804323

bias_hh_l0 f4 [32]
0	0x3e295d91	0.16539599
1	0x3e415d00	0.18883133
2	0x3e1d5827	0.15365659
3	0x3e3d00a6	0.18457279
4	0x3e2a3914	0.16623336
5	0x3ee0597c	0.4381827
6	0x3ecb51b7	0.3971078
7	0x3e1ede8c	0.15514582
8	0x3dabfb00	0.08397484
9	0x3e5dd3c5	0.21662815
10	0x3e036ad9	0.12833728
11	0x3e65a479	0.22426023
12	0x3d9eb3ae	0.07749115
13	0x3dc0f8f5	0.09422485
14	0x3d98dc5e	0.07463907
15	0x3e04818e	0.12940046
16	0x3dcb8c89	0.09938914
17	0x3e35ac7b	0.17741577
18	0xbeadf4cc	-0.33975828
19	0xbdfc54ee	-0.123208866
20	0xbd9072f1	-0.07053173
21	0x3e4b5d7d	0.19859882
22	0xbe293d14	-0.16527206
23	0x3eaeb89c	0.3412522
24	0x3e4d2114	0.2003215
25	0x3e8c871b	0.27446827
26	0x3e520b62	0.20512155
27	0x3e8493bd	0.25893965
28	0x3e4194d2	0.18904427
29	0x3ed4861c	0.41508567
30	0x3ebc0def	0.3672938
31	0x3e550949	0.20804323

weight_ih_l1 f4 [32, 8]
0	0x3da39d5a	0.07988997
1	0x3da5adfc	0.080898255
2	0xbe21e1b0	-0.15808749
3	0xbd95ba77	-0.07310956
4	0xbd1192a3	-0.035540234
5	0x3de6e676	0.11274426
6	0xbdd46c27	-0.10372191
7	0x3e222c8b	0.15837304
8	0x3c32af02	0.010905983
9	0x3b4a3a16	0.0030857376
10	0xbcc1588b	-0.02360179
11	0xbb47c118	-0.0030480083
12	0xbb9f33f5	-0.0048584887
13	0x3beb8ebf	0.0071886475
14	0xbba7f687	-0.005125824
15	0x3cc28278	0.023743853
16	0x3c32c338	0.010910802
17	0x3b4af541	0.0030968937
18	0xbcc161e6	-0.023606252
19	0xbb46ed10	-0.0030353703
20	0xbb9f16e5	-0.004855024
21	0x3beb2b9a	0.0071768286
22	0xbba88308	-0.0051425733
23	0x3cc28c01	0.0237484
24	0x3c32ac6e	0.010905368
25	0x3b49d205	0.0030795347
26	0xbcc176f2	-0.023616288
27	0xbb4811fe	-0.0030528302
28	0xbb9ea45c	-0.0048413705
29	0x3beb7ce1	0.0071865176
30	0xbba78a98	-0.005112957
31	0x3cc2a0db	0.023758342
32	0x3c32bca8	0.010909237
33	0x3b4aadbe	0.0030926312
34	0xbcc15bd8	-0.023603365
35	0xbb474625	-0.00304068
36	0xbb9f289d	-0.0048571364
37	0x3beb59ca	0.0071823345
38	0xbba8419b	-0.005134774
39	0x3cc285ec	0.0237455
40	0x3d841b32	0.064504996
41	0x3c91ca1a	0.017796565
42	0xbdf2bee2	-0.11852814
43	0x3a395e4d	0.0007071242
44	0xbb46789f	-0.0030284298
45	0x3d8f8785	0.0700827
46	0xbd7bce0f	-0.06147581
47	0x3df45edb	0.11932155
48	0x3d8adaf4	0.06780043
49	0x3d3bc0ed	0.045838285
50	0xbe46410a	-0.19360748
51	0xbd83b5b9	-0.06431145
52	0xbd53ada0	-0.051679254
53	0x3dfff8b2	0.12498607
54	0xbe114b16	-0.141888
55	0x3e47657f	0.19472311
56	0x3cce6d62	0.025198642
57	0x3c3317a0	0.010930926
58	0xbd7aa026	-0.061187886
59	0xbc41d802	-0.011831285
60	0xbc4aeb20	-0.01238516
61	0x3ccb0a55	0.0247852
62	0xbca83142	-0.0205313
63	0x3d7c4410	0.061588347
64	0x3dba2371	0.09088791
65	0x3e01562e	0.12630531
66	0xbdcd0ce4	-0.10012224
67	0xbd6ff5df	-0.05858409
68	0xbd8850f3	-0.06656065
69	0x3d8104d1	0.06299747
70	0xbbf2ab57	-0.007405679
71	0x3dcd79bf	0.10032987
72	0x3c360593	0.011109727
73	0x3b6f5538	0.00365193
74	0xbcb177b5	-0.021663526
75	0xbabb1513	-0.0014273248
76	0xbb9e3cc7	-0.0048290226
77	0x3be1a210	0.0068857744
78	0xbb24526c	-0.0025073541
79	0x3cb2aa91	0.021809848
80	0x3c3617ad	0.011114043
81	0x3b700e1e	0.0036629508
82	0xbcb181b7	-0.021668298
83	0xbab94c3e	-0.0014137102
84	0xbb9e206b	-0.004825642
85	0x3be141a7	0.0068742814
86	0xbb256ca7	-0.0025241764
87	0x3cb2b4bc	0.021814696
88	0x3c361ffe	0.011116026
89	0x3b6ee935	0.003645492
90	0xbcb19c66	-0.021681022
91	0xbabbdcde	-0.0014332791
92	0xbb9de185	-0.004818144
93	0x3be1b52d	0.006888053
94	0xbb2443ba	-0.0025064782
95	0x3cb2cf84	0.021827467
96	0x3c360936	0.0111105945
97	0x3b6fad0c	0.003657165
98	0xbcb178ab	-0.021663984
99	0xbaba463e	-0.0014211608
100	0xbb9e3528	-0.004828114
101	0x3be17387	0.006880227
102	0xbb24d0d3	-0.0025148883
103	0x3cb2ab96	0.021810334
104	0x3dade39f	0.08490681
105	0x3bfc663a	0.007702616
106	0xbe1a7e7a	-0.1508731
107	0x3cf1fd9c	0.029539876
108	0x3c159d67	0.009131766
109	0x3e11674a	0.14199558
110	0xbd66a8ef	-0.05631345
111	0x3e1b8c02	0.15190127
112	0x3d75aebe	0.0599811
113	0xbc3287f3	-0.010896671
114	0xbde3ea00	-0.11128616
115	0xbcd0fd5d	-0.025511438
116	0xbb609971	-0.0034271146
117	0x3d1e8e15	0.03870972
118	0xbcd2ed4d	-0.02574792
119	0x3de4f967	0.11180382
120	0x3ce0de78	0.027449831
121	0x3c496fbb	0.012294705
122	0xbd714b06	-0.05890944
123	0xbbdf127e	-0.0068076244
124	0xbc5bfb43	-0.013426605
125	0x3ce005b5	0.027346471
126	0xbc2c2e49	-0.010509082
127	0x3d732a63	0.059366595
128	0xbecca462	-0.39969164
129	0xbe9aff2b	-0.30272803
130	0xbc8b01e6	-0.016968679
131	0xbebac2c5	-0.36476722
132	0xbf0293d1	-0.510068
133	0x3ea63797	0.32464287
134	0x3eb0bcd5	0.34519067
135	0x3b0b8b28	0.002129266
136	0xbd50a5f7	-0.050939526
137	0xbda4bdbc	-0.080440015
138	0x3b9cec3b	0.004788903
139	0xbdf0953e	-0.11747216
140	0xbd715bcd	-0.05892544
141	0x3e1abfe4	0.15112263
142	0x3e0dee89	0.13860525
143	0xbba5b896	-0.0050574047
144	0x3d50bf1a	0.0509635
145	0x3da4d80b	0.080490194
146	0xbb9e9d4a	-0.0048405277
147	0x3df08967	0.117449574
148	0x3d714bc1	0.058910135
149	0xbe1ab3e5	-0.15107687
150	0xbe0e026e	-0.13868114
151	0x3ba76bf5	0.005109305
152	0x3d50aea8	0.050947815
153	0x3da4fbf0	0.08055866
154	0xbb9caa8e	-0.004781074
155	0x3df08988	0.11744982
156	0x3d71b59a	0.05901108
157	0xbe1ab8e7	-0.15109597
158	0xbe0de843	-0.13858132
159	0x3ba56cf6	0.0050483895
160	0xbd50b098	-0.050949663
161	0xbda4c58e	-0.08045493
162	0x3b9dbe4c	0.004813945
163	0xbdf08f36	-0.11746065
164	0xbd715198	-0.058915704
165	0x3e1ab861	0.15109397
166	0x3e0df808	0.13864148
167	0xbba68b8b	-0.005082553
168	0x3d9aa228	0.0755046
169	0xbe8d662a	-0.27617007
170	0x3d0bd436	0.034137927
171	0xbe63fe4a	-0.22264972
172	0x3d88120c	0.06644067
173	0x3f251b10	0.6449442
174	0x3f0af4de	0.5427989
175	0xbccbbb2d	-0.024869526
176	0x3e305db9	0.17223252
177	0xbd9ab6e6	-0.07554416
178	0x3dc1e659	0.094677635
179	0xbe73855a	-0.23781338
180	0x3e6ab5dd	0.22920938
181	0x3f90b178	1.1304159
182	0x3f803fe4	1.0019498
183	0xbda9a822	-0.08284022
184	0xbd6ac0cf	-0.057312783
185	0xbdcacf04	-0.09902766
186	0x3c7fcafe	0.015612362
187	0xbe512d9a	-0.20427552
188	0xbd8903a0	-0.066901445
189	0x3eae44cb	0.3403686
190	0x3e93b925	0.28852192
191	0xbc7441d6	-0.014908275
192	0x3d760ac5	0.060068864
193	0x3da589a4	0.080828935
194	0xbe2dd66f	-0.16976331
195	0xbd6b42cf	-0.05743676
196	0xbd4fcb3c	-0.05073093
197	0x3da0f934	0.07860032
198	0xbd9f1990	-0.077685475
199	0x3e2e3c27	0.17015134
200	0x3c53c3a9	0.012925067
201	0x3b8a1608	0.004214052
202	0xbcdee2db	-0.027207782
203	0xbb5febe8	-0.003416771
204	0xbbba8321	-0.0056919013
205	0x3bc9852c	0.0061499085
206	0xbb8af2e0	-0.0042403787
207	0x3ce04895	0.02737836
208	0x3c53e821	0.012933762
209	0x3b8a9093	0.0042286604
210	0xbcdef031	-0.027214142
211	0xbb5ef04d	-0.0034017742
212	0xbbba3ac1	-0.0056832735
213	0x3bc8d450	0.0061288252
214	0xbb8bcd81	-0.0042664413
215	0x3ce0562d	0.027384842
216	0x3c53d240	0.0129285455
217	0x3b89f635	0.0042102584
218	0xbcdf1196	-0.027230065
219	0xbb603f49	-0.0034217408
220	0xbbba0a7e	-0.0056775203
221	0x3bc97d42	0.006148965
222	0xbb8ac05b	-0.0042343563
223	0x3ce07779	0.027400719
224	0x3c53d8c7	0.012930102
225	0x3b8a5db3	0.0042225956
226	0xbcdee974	-0.027210928
227	0xbb5f5c72	-0.0034082201
228	0xbbba6b0c	-0.0056890305
229	0x3bc92db6	0.0061394824
230	0xbb8b6764	-0.0042542685
231	0x3ce04f59	0.027381586
232	0x3dcea941	0.10090876
233	0x3d340d97	0.043958273
234	0xbe36e7a7	-0.17861806
235	0xbc4e58f9	-0.012594455
236	0xbd0e4163	-0.034730326
237	0x3db0fe84	0.08642295
238	0xbd7cc620	-0.061712384
239	0x3e37fc20	0.17967272
240	0x3de433a5	0.11142663
241	0x3d43e00c	0.04782109
242	0xbe844ead	-0.25841275
243	0xbd713567	-0.05888882
244	0xbd954de7	-0.07290249
245	0x3df61115	0.12014977
246	0xbe06a51e	-0.13148925
247	0x3e851e58	0.25999713
248	0x3d1a4cc8	0.03767088
249	0x3c80ea87	0.015736831
250	0xbdaa2ee5	-0.08309726
251	0xbc59b359	-0.013287389
252	0xbc92cab7	-0.017918928
253	0x3ccb9587	0.024851574
254	0xbcac8ce9	-0.021063285
255	0x3dab5674	0.08366099

weight_hh_l1 f4 [32, 8]
0	0x3ca8cf21	0.02060658
1	0xbb2eb419	-0.002665764
2	0x3b3228b1	0.0027184898
3	0x3b2fd06e	0.0026827115
4	0xbb308684	-0.0026935646
5	0xbd7484da	-0.05969701
6	0x386cac72	5.6427387e-05
7	0xbb78f96a	-0.003799046
8	0xbb9b8e6f	-0.004747204
9	0xb9937fa8	-0.00028133136
10	0x39964fb7	0.00028669622
11	0x3992f86e	0.00028032385
12	0xb994c306	-0.00028374064
13	0x3b73b486	0.0037186458
14	0x3a2578bc	0.00063122413
15	0xb982d412	-0.00024953537
16	0xbb9c01c0	-0.004760951
17	0xb9956b79	-0.00028499568
18	0x39983bb0	0.0002903617
19	0x3994e468	0.00028398936
20	0xb996aecb	-0.0002874046
21	0x3b73098e	0.0037084552
22	0x3a21fcd2	0.0006179336
23	0xb98691bb	-0.0002566705
24	0xbb9b7008	-0.00474358
25	0xb9932088	-0.00028062263
26	0x3995ee76	0.00028597162
27	0x3992991a	0.0002796136
28	0xb994632f	-0.00028302657
29	0x3b73f92c	0.0037227375
30	0x3a250b57	0.000629594
31	0xb981254a	-0.0002463258
32	0xbb9bd21d	-0.004755272
33	0xb99528c8	-0.0002844988
34	0x3997f904	0.00028986495
35	0x3994a1a6	0.00028349197
36	0xb9966be0	-0.00028690603
37	0x3b7346f9	0.003712116
38	0x3a238b36	0.00062387006
39	0xb9853dc8	-0.00025413767
40	0xbb45cf68	-0.0030183438
41	0xbb2c02e3	-0.0026246838
42	0x3b2e101a	0.002655989
43	0x3b2bc3ad	0.002620916
44	0xbb2d26e6	-0.002642089
45	0x3cb45513	0.022013223
46	0x3cb36726	0.021899771
47	0x3a64c7b7	0.00087272696
48	0xbbd14df6	-0.0063874675
49	0x3b85f3b3	0.004087889
50	0xbb8498e4	-0.0040465463
51	0xbb861102	-0.004091383
52	0x3b853c47	0.0040660235
53	0x3cc95aa8	0.024579361
54	0x3c0211ed	0.007938844
55	0x3c1d21f7	0.009590617
56	0xbc4dd81f	-0.012563734
57	0x39dd20b4	0.0004217677
58	0xb9d6637f	-0.0004089139
59	0xb9de2e77	-0.0004237776
60	0x39d99837	0.00041502874
61	0x3c720287	0.01477111
62	0x3ba3e6a9	0.005001862
63	0x3af4042f	0.001861697
64	0xbcae83c5	-0.021303067
65	0xbc0c0854	-0.008546907
66	0x3c0c9969	0.008581498
67	0x3c0c25dd	0.008553949
68	0xbc0c55ea	-0.008565405
69	0xbda55af7	-0.08073991
70	0x3cc04ca3	0.023474043
71	0xbc25156a	-0.010075906
72	0xbc01e718	-0.007928632
73	0xb98b457b	-0.00026563913
74	0x398df3b4	0.0002707519
75	0x398ada5a	0.00026484096
76	0xb98c8531	-0.00026802116
77	0x3ba566e4	0.005047666
78	0x3ae7d16d	0.0017686315
79	0xb834e17c	-4.3125343e-05
80	0xbc023734	-0.007947732
81	0xb98e6bc0	-0.0002716463
82	0x39911ab8	0.00027676462
83	0x398e0154	0.0002708534
84	0xb98faba7	-0.00027402976
85	0x3ba4e6a8	0.005032379
86	0x3ae4fbf3	0.0017470106
87	0xb861ab21	-5.3803557e-05
88	0xbc01cf7b	-0.007923002
89	0xb98aa095	-0.00026441054
90	0x398d4c66	0.00026950537
91	0x398a3565	0.00026361193
92	0xb98be012	-0.0002667909
93	0x3ba591ba	0.0050527724
94	0x3ae86657	0.0017730695
95	0xb826cdcf	-3.976916e-05
96	0xbc020db6	-0.007937839
97	0xb98cfa98	-0.00026889588
98	0x398fa94c	0.0002740122
99	0x398c8fa3	0.000268099
100	0xb98e3a80	-0.00027127936
101	0x3ba5289c	0.0050402414
102	0x3ae67f25	0.00175855
103	0xb84a9dc2	-4.8307476e-05
104	0xbcffcb6e	-0.031224933
105	0x3c161dbe	0.0091623645
106	0xbc156bd6	-0.009119948
107	0xbc163dd9	-0.009170019
108	0x3c15b857	0.009138188
109	0x3c984222	0.018586222
110	0x3d9d655a	0.07685347
111	0x3bfba2c2	0.0076793144
112	0xbd8cb721	-0.068708666
113	0x3c311473	0.010808098
114	0xbc3087a2	-0.010774525
115	0xbc313c0b	-0.010817538
116	0x3c30bb3b	0.010786827
117	0x3db8afb4	0.09017888
118	0x3d06dc93	0.0329252
119	0x3cd4f63e	0.025996324
120	0xbce66ebd	-0.028128976
121	0x3ab4aeb2	0.0013784973
122	0xbab2df34	-0.0013646842
123	0xbab50b9a	-0.0013812662
124	0x3ab3b200	0.0013709664
125	0x3cd80f96	0.02637462
126	0x3c4cc5bb	0.0124983145
127	0x3b8b006c	0.0042419937
128	0x3ec07555	0.37589517
129	0xbd465309	-0.048419032
130	0x3d465fc5	0.048431177
131	0x3d45f8b2	0.048332877
132	0xbd465dc2	-0.04842926
133	0xbe66ca39	-0.2253808
134	0xbf074b5e	-0.52849376
135	0xbe0345b0	-0.12819552
136	0x3dc31da6	0.09527139
137	0x3d120868	0.035652548
138	0xbd1209d2	-0.035653897
139	0xbd120da8	-0.035657555
140	0x3d1209c5	0.03565385
141	0x3db53247	0.0884748
142	0x3de263b3	0.11054172
143	0x3d801ad3	0.06255116
144	0xbdc31e45	-0.09527258
145	0xbd120cc9	-0.035656724
146	0x3d120e3f	0.035658117
147	0x3d12120c	0.035661742
148	0xbd120e2f	-0.035658058
149	0xbdb537d2	-0.088485375
150	0xbde26776	-0.1105489
151	0xbd801d3f	-0.06255578
152	0xbdc317b9	-0.09526009
153	0xbd1212ec	-0.035662577
154	0x3d121460	0.035663962
155	0x3d121812	0.035667486
156	0xbd12144d	-0.03566389
157	0xbdb533b3	-0.088477515
158	0xbde25715	-0.11051766
159	0xbd8012f9	-0.06253619
160	0x3dc31cf1	0.095270045
161	0x3d120934	0.035653308
162	0xbd120a9c	-0.03565465
163	0xbd120e76	-0.035658322
164	0x3d120a8f	0.0356546
165	0x3db53388	0.088477194
166	0x3de266e1	0.11054779
167	0x3d801cb1	0.062554725
168	0xbd2af523	-0.041737687
169	0xbcd5bfac	-0.026092373
170	0x3cd5dce3	0.026106304
171	0x3cd4dd85	0.025984535
172	0xbcd5d7f3	-0.02610395
173	0x3ed211bc	0.41029155
174	0xbe194a63	-0.14969783
175	0xbda0b09a	-0.07846184
176	0x3e9a63bb	0.30154213
177	0x3ce5752a	0.02800997
178	0xbce58e9a	-0.0280221
179	0xbce56389	-0.028001564
180	0x3ce5833c	0.028016679
181	0x3d844e74	0.06460276
182	0x3cb32085	0.021866092
183	0x3d82e100	0.063905716
184	0x3e022c91	0.12712313
185	0x3d36b13b	0.044602614
186	0xbd36af13	-0.044600558
187	0xbd36a9a2	-0.04459537
188	0x3d36b083	0.04460193
189	0x3dd6234e	0.104559526
190	0x3e19c648	0.15017045
191	0x3d9da870	0.076981425
192	0x3c630ed9	0.01385852
193	0xbc4b8910	-0.012422815
194	0x3c4c5180	0.012470603
195	0x3c4baff7	0.01243209
196	0xbc4bf298	-0.012447976
197	0xbda21fb3	-0.079162024
198	0xbcd05233	-0.02542982
199	0xbcaea264	-0.021317668
200	0xbbb88a22	-0.005631701
201	0xb9deda5a	-0.00042505824
202	0x39e1ee95	0.00043093102
203	0x39de6a36	0.00042422273
204	0xb9e067f8	-0.00042802072
205	0x3b6c7e2b	0.0036085944
206	0x3a7355ab	0.000928248
207	0xb9b943f7	-0.00035336587
208	0xbbb9347e	-0.0056520095
209	0xb9e257b3	-0.0004317142
210	0x39e56c19	0.00043758823
211	0x39e1e79c	0.00043087907
212	0xb9e3e594	-0.00043467863
213	0x3b6b35cd	0.0035890222
214	0x3a6bf928	0.0009001666
215	0xb9bfcf78	-0.00036584935
216	0xbbb879e9	-0.005629767
217	0xb9debeb5	-0.00042485227
218	0x39e1d08e	0.0004307073
219	0x39de4e13	0.0004240131
220	0xb9e04bd9	-0.0004278112
221	0x3b6cb048	0.0036115814
222	0x3a731f36	0.0009274365
223	0xb9b820ea	-0.00035119738
224	0xbbb8e6eb	-0.005642762
225	0xb9e10aaf	-0.00042923304
226	0x39e41eec	0.00043510587
227	0x39e09a37	0.00042839508
228	0xb9e298b0	-0.0004321984
229	0x3b6bc438	0.003597511
230	0x3a6f6c1e	0.0009133237
231	0xb9bcfe53	-0.0003604764
232	0xbd260412	-0.040531226
233	0x3b2a2c60	0.002596639
234	0xbb273371	-0.002551284
235	0xbb2a1070	-0.002594974
236	0x3b288681	0.0025714936
237	0x3d123625	0.035696167
238	0x3d4c47a7	0.04987302
239	0x3c2b6bc4	0.010462705
240	0xbc9030c7	-0.017601384
241	0x3b0b6203	0.0021268136
242	0xbb07f479	-0.0020745082
243	0xbb0bb7a1	-0.0021319168
244	0x3b099495	0.0020993103
245	0x3cbe7ff6	0.023254376
246	0x3bc8559f	0.0061137225
247	0x3bc8d3b5	0.006128753
248	0xbc8a9c5d	-0.016920263
249	0xb9888c64	-0.0002604454
250	0x39914f1f	0.00027715505
251	0x39873d33	0.00025794804
252	0xb98d30ba	-0.0002692992
253	0x3c6bc70d	0.014390719
254	0x3bbe9530	0.0058161244
255	0x3a924e5f	0.0011162272

bias_ih_l1 f4 [32]
0	0x3ec4466c	0.38334978
1	0x3d6b3c40	0.057430506
2	0x3d6b46a9	0.057440434
3	0x3d6b409d	0.057434667
4	0x3d6b3e48	0.057432443
5	0x3eaf23ef	0.34207103
6	0x3f1217c3	0.5706751
7	0x3e241116	0.16022143
8	0x3e38cf43	0.18047814
9	0x3d3a370f	0.045462664
10	0x3d3a401b	0.045471292
11	0x3d3a4ec6	0.04548528
12	0x3d3a381c	0.045463666
13	0x3ea6c679	0.32573298
14	0x3e428bec	0.18998688
15	0x3dfd2827	0.12361174
16	0xbe72801f	-0.23681687
17	0xbb824555	-0.00397555
18	0x3b8460fe	0.0040398827
19	0x3b82451e	0.0039755246
20	0xbb835ea0	-0.004009083
21	0xbc5332d1	-0.012890534
22	0xbaba6e58	-0.0014223559
23	0xbc4eee2e	-0.012630029
24	0x3ee113d5	0.43960443
25	0x3d87da3f	0.06633424
26	0x3d87e13a	0.066347554
27	0x3d87e3e3	0.06635263
28	0x3d87db68	0.06633645
29	0x3eef7ada	0.46773416
30	0x3f34b6a1	0.7059117
31	0x3e57d0bc	0.2107572

bias_hh_l1 f4 [32]
0	0x3ec4466c	0.38334978
1	0x3d6b3c40	0.057430506
2	0x3d6b46a9	0.057440434
3	0x3d6b409d	0.057434667
4	0x3d6b3e48	0.057432443
5	0x3eaf23ef	0.34207103
6	0x3f1217c3	0.5706751
7	0x3e241116	0.16022143
8	0x3e38cf43	0.18047814
9	0x3d3a370f	0.045462664
10	0x3d3a401b	0.045471292
11	0x3d3a4ec6	0.04548528
12	0x3d3a381c	0.045463666
13	0x3ea6c679	0.32573298
14	0x3e428bec	0.18998688
15	0x3dfd2827	0.12361174
16	0x3e5e45e8	0.21706355
17	0xbb824555	-0.00397555
18	0x3b8460fe	0.0040398827
19	0x3b82451e	0.0039755246
20	0xbb835ea0	-0.004009083
21	0xbc075d45	-0.008261983
22	0xbaba6e50	-0.001422355
23	0xbc4eee2e	-0.012630029
24	0x3ee113d5	0.43960443
25	0x3d87da3f	0.06633424
26	0x3d87e13a	0.066347554
27	0x3d87e3e3	0.06635263
28	0x3d87db68	0.06633645
29	0x3eef7ada	0.46773416
30	0x3f34b6a1	0.7059117
31	0x3e57d0bc	0.2107572

weight f4 [1, 8]
0	0xbf99bf7b	-1.201156
1	0xbeba1dee	-0.3635096
2	0x3eba21ed	0.36354008
3	0x3eba28bc	0.36359203
4	0xbeba1dcb	-0.36350855
5	0xbfa3939b	-1.2779421
6	0xc003f623	-2.061898
7	0xbf3c38af	-0.7352399
